…
}, {'stage_idx': 21, 'block_idx': 0, 'block': [6, 352, 1, 1]}]
[['skip'], ['ir_k3_e3'], ['ir_k3_e1'], ['skip'], ['skip'], ['ir_k5_e6'], ['ir_k3_e3'], ['ir_k5_e1'], ['ir_k3_e3'], ['ir_k5_e6'], ['ir_k5_e3'], ['ir_k5_s2'], ['ir_k5_e6'], ['ir_k3_e6'], ['ir_k5_s2'], ['ir_k5_e1'], ['ir_k3_s2'], ['ir_k5_e6'], ['ir_k5_e6'], ['ir_k5_e3'], ['ir_k5_e6'], ['ir_k5_e6']]
sum layers: 60
----------------------------------------------------------------
        Layer (type)               Output Shape         Param #
================================================================
            Conv2d-1           [-1, 16, 32, 32]             432
       BatchNorm2d-2           [-1, 16, 32, 32]              32
              ReLU-3           [-1, 16, 32, 32]               0
          Identity-4           [-1, 16, 32, 32]               0
            Conv2d-5           [-1, 48, 32, 32]             768
       BatchNorm2d-6           [-1, 48, 32, 32]              96
              ReLU-7           [-1, 48, 32, 32]               0
            Conv2d-8           [-1, 48, 16, 16]             432
            Conv2d-9           [-1, 24, 16, 16]           1,152
      BatchNorm2d-10           [-1, 24, 16, 16]              48
         IRFBlock-11           [-1, 24, 16, 16]               0
           Conv2d-12           [-1, 24, 16, 16]             576
      BatchNorm2d-13           [-1, 24, 16, 16]              48
             ReLU-14           [-1, 24, 16, 16]               0
           Conv2d-15           [-1, 24, 16, 16]             216
           Conv2d-16           [-1, 24, 16, 16]             576
      BatchNorm2d-17           [-1, 24, 16, 16]              48
         IRFBlock-18           [-1, 24, 16, 16]               0
         Identity-19           [-1, 24, 16, 16]               0
         Identity-20           [-1, 24, 16, 16]               0
           Conv2d-21          [-1, 144, 16, 16]           3,456
      BatchNorm2d-22          [-1, 144, 16, 16]             288
             ReLU-23          [-1, 144, 16, 16]               0
           Conv2d-24            [-1, 144, 8, 8]           3,600
           Conv2d-25             [-1, 32, 8, 8]           4,608
      BatchNorm2d-26             [-1, 32, 8, 8]              64
         IRFBlock-27             [-1, 32, 8, 8]               0
           Conv2d-28             [-1, 96, 8, 8]           3,072
      BatchNorm2d-29             [-1, 96, 8, 8]             192
             ReLU-30             [-1, 96, 8, 8]               0
           Conv2d-31             [-1, 96, 8, 8]             864
           Conv2d-32             [-1, 32, 8, 8]           3,072
      BatchNorm2d-33             [-1, 32, 8, 8]              64
         IRFBlock-34             [-1, 32, 8, 8]               0
           Conv2d-35             [-1, 32, 8, 8]           1,024
      BatchNorm2d-36             [-1, 32, 8, 8]              64
             ReLU-37             [-1, 32, 8, 8]               0
           Conv2d-38             [-1, 32, 8, 8]             800
           Conv2d-39             [-1, 32, 8, 8]           1,024
      BatchNorm2d-40             [-1, 32, 8, 8]              64
         IRFBlock-41             [-1, 32, 8, 8]               0
           Conv2d-42             [-1, 96, 8, 8]           3,072
      BatchNorm2d-43             [-1, 96, 8, 8]             192
             ReLU-44             [-1, 96, 8, 8]               0
           Conv2d-45             [-1, 96, 8, 8]             864
           Conv2d-46             [-1, 32, 8, 8]           3,072
      BatchNorm2d-47             [-1, 32, 8, 8]              64
         IRFBlock-48             [-1, 32, 8, 8]               0
           Conv2d-49            [-1, 192, 8, 8]           6,144
      BatchNorm2d-50            [-1, 192, 8, 8]             384
             ReLU-51            [-1, 192, 8, 8]               0
           Conv2d-52            [-1, 192, 4, 4]           4,800
           Conv2d-53             [-1, 64, 4, 4]          12,288
      BatchNorm2d-54             [-1, 64, 4, 4]             128
         IRFBlock-55             [-1, 64, 4, 4]               0
           Conv2d-56            [-1, 192, 4, 4]          12,288
      BatchNorm2d-57            [-1, 192, 4, 4]             384
             ReLU-58            [-1, 192, 4, 4]               0
           Conv2d-59            [-1, 192, 4, 4]           4,800
           Conv2d-60             [-1, 64, 4, 4]          12,288
      BatchNorm2d-61             [-1, 64, 4, 4]             128
         IRFBlock-62             [-1, 64, 4, 4]               0
           Conv2d-63             [-1, 64, 4, 4]           2,048
      BatchNorm2d-64             [-1, 64, 4, 4]             128
             ReLU-65             [-1, 64, 4, 4]               0
   ChannelShuffle-66             [-1, 64, 4, 4]               0
           Conv2d-67             [-1, 64, 4, 4]           1,600
           Conv2d-68             [-1, 64, 4, 4]           2,048
      BatchNorm2d-69             [-1, 64, 4, 4]             128
         IRFBlock-70             [-1, 64, 4, 4]               0
           Conv2d-71            [-1, 384, 4, 4]          24,576
      BatchNorm2d-72            [-1, 384, 4, 4]             768
             ReLU-73            [-1, 384, 4, 4]               0
           Conv2d-74            [-1, 384, 4, 4]           9,600
           Conv2d-75             [-1, 64, 4, 4]          24,576
      BatchNorm2d-76             [-1, 64, 4, 4]             128
         IRFBlock-77             [-1, 64, 4, 4]               0
           Conv2d-78            [-1, 384, 4, 4]          24,576
      BatchNorm2d-79            [-1, 384, 4, 4]             768
             ReLU-80            [-1, 384, 4, 4]               0
           Conv2d-81            [-1, 384, 4, 4]           3,456
           Conv2d-82            [-1, 112, 4, 4]          43,008
      BatchNorm2d-83            [-1, 112, 4, 4]             224
         IRFBlock-84            [-1, 112, 4, 4]               0
           Conv2d-85            [-1, 112, 4, 4]           6,272
      BatchNorm2d-86            [-1, 112, 4, 4]             224
             ReLU-87            [-1, 112, 4, 4]               0
   ChannelShuffle-88            [-1, 112, 4, 4]               0
           Conv2d-89            [-1, 112, 4, 4]           2,800
           Conv2d-90            [-1, 112, 4, 4]           6,272
      BatchNorm2d-91            [-1, 112, 4, 4]             224
         IRFBlock-92            [-1, 112, 4, 4]               0
           Conv2d-93            [-1, 112, 4, 4]          12,544
      BatchNorm2d-94            [-1, 112, 4, 4]             224
             ReLU-95            [-1, 112, 4, 4]               0
           Conv2d-96            [-1, 112, 4, 4]           2,800
           Conv2d-97            [-1, 112, 4, 4]          12,544
      BatchNorm2d-98            [-1, 112, 4, 4]             224
         IRFBlock-99            [-1, 112, 4, 4]               0
          Conv2d-100            [-1, 112, 4, 4]           6,272
     BatchNorm2d-101            [-1, 112, 4, 4]             224
            ReLU-102            [-1, 112, 4, 4]               0
  ChannelShuffle-103            [-1, 112, 4, 4]               0
          Conv2d-104            [-1, 112, 4, 4]           1,008
          Conv2d-105            [-1, 112, 4, 4]           6,272
     BatchNorm2d-106            [-1, 112, 4, 4]             224
        IRFBlock-107            [-1, 112, 4, 4]               0
          Conv2d-108            [-1, 672, 4, 4]          75,264
     BatchNorm2d-109            [-1, 672, 4, 4]           1,344
            ReLU-110            [-1, 672, 4, 4]               0
          Conv2d-111            [-1, 672, 2, 2]          16,800
          Conv2d-112            [-1, 184, 2, 2]         123,648
     BatchNorm2d-113            [-1, 184, 2, 2]             368
        IRFBlock-114            [-1, 184, 2, 2]               0
          Conv2d-115           [-1, 1104, 2, 2]         203,136
     BatchNorm2d-116           [-1, 1104, 2, 2]           2,208
            ReLU-117           [-1, 1104, 2, 2]               0
          Conv2d-118           [-1, 1104, 2, 2]          27,600
          Conv2d-119            [-1, 184, 2, 2]         203,136
     BatchNorm2d-120            [-1, 184, 2, 2]             368
        IRFBlock-121            [-1, 184, 2, 2]               0
          Conv2d-122            [-1, 552, 2, 2]         101,568
     BatchNorm2d-123            [-1, 552, 2, 2]           1,104
            ReLU-124            [-1, 552, 2, 2]               0
          Conv2d-125            [-1, 552, 2, 2]          13,800
          Conv2d-126            [-1, 184, 2, 2]         101,568
     BatchNorm2d-127            [-1, 184, 2, 2]             368
        IRFBlock-128            [-1, 184, 2, 2]               0
          Conv2d-129           [-1, 1104, 2, 2]         203,136
     BatchNorm2d-130           [-1, 1104, 2, 2]           2,208
            ReLU-131           [-1, 1104, 2, 2]               0
          Conv2d-132           [-1, 1104, 2, 2]          27,600
          Conv2d-133            [-1, 184, 2, 2]         203,136
     BatchNorm2d-134            [-1, 184, 2, 2]             368
        IRFBlock-135            [-1, 184, 2, 2]               0
          Conv2d-136           [-1, 1104, 2, 2]         203,136
     BatchNorm2d-137           [-1, 1104, 2, 2]           2,208
            ReLU-138           [-1, 1104, 2, 2]               0
          Conv2d-139           [-1, 1104, 2, 2]          27,600
          Conv2d-140            [-1, 352, 2, 2]         388,608
     BatchNorm2d-141            [-1, 352, 2, 2]             704
        IRFBlock-142            [-1, 352, 2, 2]               0
          Conv2d-143           [-1, 1504, 1, 1]       2,119,136
         Dropout-144           [-1, 1504, 1, 1]               0
         Flatten-145                 [-1, 1504]               0
          Linear-146                   [-1, 10]          15,050
================================================================
Total params: 4,348,506
Trainable params: 4,348,506
Non-trainable params: 0
----------------------------------------------------------------
Input size (MB): 0.01
Forward/backward pass size (MB): 5.95
Params size (MB): 16.59
Estimated Total Size (MB): 22.55
----------------------------------------------------------------
(432,)
module.first.conv.weight_percentage: 1.6203703703703705
…
