…
torch.Size([184, 672, 1, 1])
torch.Size([552, 184, 1, 1])
torch.Size([552, 1, 5, 5])
torch.Size([184, 552, 1, 1])
torch.Size([184, 184, 1, 1])
torch.Size([184, 1, 3, 3])
torch.Size([184, 184, 1, 1])
torch.Size([184, 184, 1, 1])
torch.Size([184, 1, 5, 5])
torch.Size([184, 184, 1, 1])
torch.Size([352, 184, 1, 1])
torch.Size([1504, 352, 2, 2])
torch.Size([10, 1504])
sum layers: 49
----------------------------------------------------------------
        Layer (type)               Output Shape         Param #
================================================================
            Conv2d-1           [-1, 16, 32, 32]             432
       BatchNorm2d-2           [-1, 16, 32, 32]              32
              ReLU-3           [-1, 16, 32, 32]               0
            Conv2d-4           [-1, 96, 32, 32]           1,536
       BatchNorm2d-5           [-1, 96, 32, 32]             192
              ReLU-6           [-1, 96, 32, 32]               0
            Conv2d-7           [-1, 96, 32, 32]             864
            Conv2d-8           [-1, 16, 32, 32]           1,536
       BatchNorm2d-9           [-1, 16, 32, 32]              32
         IRFBlock-10           [-1, 16, 32, 32]               0
           Conv2d-11           [-1, 96, 32, 32]           1,536
      BatchNorm2d-12           [-1, 96, 32, 32]             192
             ReLU-13           [-1, 96, 32, 32]               0
           Conv2d-14           [-1, 96, 16, 16]           2,400
           Conv2d-15           [-1, 24, 16, 16]           2,304
      BatchNorm2d-16           [-1, 24, 16, 16]              48
         IRFBlock-17           [-1, 24, 16, 16]               0
           Conv2d-18          [-1, 144, 16, 16]           3,456
      BatchNorm2d-19          [-1, 144, 16, 16]             288
             ReLU-20          [-1, 144, 16, 16]               0
           Conv2d-21          [-1, 144, 16, 16]           3,600
           Conv2d-22           [-1, 24, 16, 16]           3,456
      BatchNorm2d-23           [-1, 24, 16, 16]              48
         IRFBlock-24           [-1, 24, 16, 16]               0
           Conv2d-25          [-1, 144, 16, 16]           3,456
      BatchNorm2d-26          [-1, 144, 16, 16]             288
             ReLU-27          [-1, 144, 16, 16]               0
           Conv2d-28          [-1, 144, 16, 16]           1,296
           Conv2d-29           [-1, 24, 16, 16]           3,456
      BatchNorm2d-30           [-1, 24, 16, 16]              48
         IRFBlock-31           [-1, 24, 16, 16]               0
           Conv2d-32          [-1, 144, 16, 16]           3,456
      BatchNorm2d-33          [-1, 144, 16, 16]             288
             ReLU-34          [-1, 144, 16, 16]               0
           Conv2d-35          [-1, 144, 16, 16]           3,600
           Conv2d-36           [-1, 24, 16, 16]           3,456
      BatchNorm2d-37           [-1, 24, 16, 16]              48
         IRFBlock-38           [-1, 24, 16, 16]               0
           Conv2d-39          [-1, 144, 16, 16]           3,456
      BatchNorm2d-40          [-1, 144, 16, 16]             288
             ReLU-41          [-1, 144, 16, 16]               0
           Conv2d-42            [-1, 144, 8, 8]           3,600
           Conv2d-43             [-1, 32, 8, 8]           4,608
      BatchNorm2d-44             [-1, 32, 8, 8]              64
         IRFBlock-45             [-1, 32, 8, 8]               0
           Conv2d-46            [-1, 192, 8, 8]           6,144
      BatchNorm2d-47            [-1, 192, 8, 8]             384
             ReLU-48            [-1, 192, 8, 8]               0
           Conv2d-49            [-1, 192, 8, 8]           4,800
           Conv2d-50             [-1, 32, 8, 8]           6,144
      BatchNorm2d-51             [-1, 32, 8, 8]              64
         IRFBlock-52             [-1, 32, 8, 8]               0
           Conv2d-53            [-1, 192, 8, 8]           6,144
      BatchNorm2d-54            [-1, 192, 8, 8]             384
             ReLU-55            [-1, 192, 8, 8]               0
           Conv2d-56            [-1, 192, 8, 8]           4,800
           Conv2d-57             [-1, 32, 8, 8]           6,144
      BatchNorm2d-58             [-1, 32, 8, 8]              64
         IRFBlock-59             [-1, 32, 8, 8]               0
           Conv2d-60            [-1, 192, 8, 8]           6,144
      BatchNorm2d-61            [-1, 192, 8, 8]             384
             ReLU-62            [-1, 192, 8, 8]               0
           Conv2d-63            [-1, 192, 8, 8]           4,800
           Conv2d-64             [-1, 32, 8, 8]           6,144
      BatchNorm2d-65             [-1, 32, 8, 8]              64
         IRFBlock-66             [-1, 32, 8, 8]               0
           Conv2d-67            [-1, 192, 8, 8]           6,144
      BatchNorm2d-68            [-1, 192, 8, 8]             384
             ReLU-69            [-1, 192, 8, 8]               0
           Conv2d-70            [-1, 192, 4, 4]           4,800
           Conv2d-71             [-1, 64, 4, 4]          12,288
      BatchNorm2d-72             [-1, 64, 4, 4]             128
         IRFBlock-73             [-1, 64, 4, 4]               0
         Identity-74             [-1, 64, 4, 4]               0
         Identity-75             [-1, 64, 4, 4]               0
         Identity-76             [-1, 64, 4, 4]               0
           Conv2d-77            [-1, 384, 4, 4]          24,576
      BatchNorm2d-78            [-1, 384, 4, 4]             768
             ReLU-79            [-1, 384, 4, 4]               0
           Conv2d-80            [-1, 384, 4, 4]           3,456
           Conv2d-81            [-1, 112, 4, 4]          43,008
      BatchNorm2d-82            [-1, 112, 4, 4]             224
         IRFBlock-83            [-1, 112, 4, 4]               0
         Identity-84            [-1, 112, 4, 4]               0
         Identity-85            [-1, 112, 4, 4]               0
         Identity-86            [-1, 112, 4, 4]               0
           Conv2d-87            [-1, 672, 4, 4]          75,264
      BatchNorm2d-88            [-1, 672, 4, 4]           1,344
             ReLU-89            [-1, 672, 4, 4]               0
           Conv2d-90            [-1, 672, 2, 2]          16,800
           Conv2d-91            [-1, 184, 2, 2]         123,648
      BatchNorm2d-92            [-1, 184, 2, 2]             368
         IRFBlock-93            [-1, 184, 2, 2]               0
           Conv2d-94            [-1, 552, 2, 2]         101,568
      BatchNorm2d-95            [-1, 552, 2, 2]           1,104
             ReLU-96            [-1, 552, 2, 2]               0
           Conv2d-97            [-1, 552, 2, 2]          13,800
           Conv2d-98            [-1, 184, 2, 2]         101,568
      BatchNorm2d-99            [-1, 184, 2, 2]             368
        IRFBlock-100            [-1, 184, 2, 2]               0
          Conv2d-101            [-1, 184, 2, 2]          33,856
     BatchNorm2d-102            [-1, 184, 2, 2]             368
            ReLU-103            [-1, 184, 2, 2]               0
          Conv2d-104            [-1, 184, 2, 2]           1,656
          Conv2d-105            [-1, 184, 2, 2]          33,856
     BatchNorm2d-106            [-1, 184, 2, 2]             368
        IRFBlock-107            [-1, 184, 2, 2]               0
          Conv2d-108            [-1, 184, 2, 2]          33,856
     BatchNorm2d-109            [-1, 184, 2, 2]             368
            ReLU-110            [-1, 184, 2, 2]               0
          Conv2d-111            [-1, 184, 2, 2]           4,600
          Conv2d-112            [-1, 184, 2, 2]          33,856
     BatchNorm2d-113            [-1, 184, 2, 2]             368
        IRFBlock-114            [-1, 184, 2, 2]               0
          Conv2d-115            [-1, 352, 2, 2]          64,768
     BatchNorm2d-116            [-1, 352, 2, 2]             704
            ReLU-117            [-1, 352, 2, 2]               0
        Identity-118            [-1, 352, 2, 2]               0
          Conv2d-119           [-1, 1504, 1, 1]       2,119,136
         Dropout-120           [-1, 1504, 1, 1]               0
         Flatten-121                 [-1, 1504]               0
          Linear-122                   [-1, 10]          15,050
================================================================
Total params: 2,980,386
Trainable params: 2,980,386
Non-trainable params: 0
----------------------------------------------------------------
Input size (MB): 0.01
Forward/backward pass size (MB): 13.50
Params size (MB): 11.37
Estimated Total Size (MB): 24.88
----------------------------------------------------------------
(432,)
module.first.conv.weight_percentage: 5.092592592592593
…
